{"format": "graph-model", "generatedBy": "2.20.0", "convertedBy": "TensorFlow.js Converter v3.18.0", "signature": {"inputs": {"input_layer_15": {"name": "input_layer_15:0", "dtype": "DT_FLOAT", "tensorShape": {"dim": [{"size": "-1"}, {"size": "224"}, {"size": "224"}, {"size": "3"}]}}}, "outputs": {"output_0": {"name": "Identity:0", "dtype": "DT_FLOAT", "tensorShape": {"dim": [{"size": "-1"}, {"size": "7"}]}}}}, "modelTopology": {"node": [{"name": "StatefulPartitionedCall/functional_14_1/conv1_1/convolution/merged_input", "op": "Const", "attr": {"value": {"tensor": {"dtype": "DT_FLOAT", "tensorShape": {"dim": [{"size": "3"}, {"size": "3"}, {"size": "3"}, {"size": "32"}]}}}, "dtype": {"type": "DT_FLOAT"}}}, {"name": "StatefulPartitionedCall/functional_14_1/conv1_bn_1/batchnorm/sub", "op": "Const", "attr": {"value": {"tensor": {"dtype": "DT_FLOAT", "tensorShape": {"dim": [{"size": "32"}]}}}, "dtype": {"type": "DT_FLOAT"}}}, {"name": "StatefulPartitionedCall/functional_14_1/conv_dw_1_1/depthwise/ReadVariableOp", "op": "Const", "attr": {"value": {"tensor": {"dtype": "DT_FLOAT", "tensorShape": {"dim": [{"size": "3"}, {"size": "3"}, {"size": "32"}, {"size": "1"}]}}}, "dtype": {"type": "DT_FLOAT"}}}, {"name": "StatefulPartitionedCall/functional_14_1/conv_dw_1_bn_1/batchnorm/mul", "op": "Const", "attr": {"value": {"tensor": {"dtype": "DT_FLOAT", "tensorShape": {"dim": [{"size": "32"}]}}}, "dtype": {"type": "DT_FLOAT"}}}, {"name": "StatefulPartitionedCall/functional_14_1/conv_dw_1_bn_1/batchnorm/sub", "op": "Const", "attr": {"value": {"tensor": {"dtype": "DT_FLOAT", "tensorShape": {"dim": [{"size": "32"}]}}}, "dtype": {"type": "DT_FLOAT"}}}, {"name": "StatefulPartitionedCall/functional_14_1/conv_pw_1_1/convolution/merged_input", "op": "Const", "attr": {"value": {"tensor": {"dtype": "DT_FLOAT", "tensorShape": {"dim": [{"size": "1"}, {"size": "1"}, {"size": "32"}, {"size": "64"}]}}}, "dtype": {"type": "DT_FLOAT"}}}, {"name": "StatefulPartitionedCall/functional_14_1/conv_pw_1_bn_1/batchnorm/sub", "op": "Const", "attr": {"value": {"tensor": {"dtype": "DT_FLOAT", "tensorShape": {"dim": [{"size": "64"}]}}}, "dtype": {"type": "DT_FLOAT"}}}, {"name": "StatefulPartitionedCall/functional_14_1/conv_pad_2_1/Const", "op": "Const", "attr": {"value": {"tensor": {"dtype": "DT_INT32", "tensorShape": {"dim": [{"size": "4"}, {"size": "2"}]}}}, "dtype": {"type": "DT_INT32"}}}, {"name": "StatefulPartitionedCall/functional_14_1/conv_dw_2_1/depthwise/ReadVariableOp", "op": "Const", "attr": {"value": {"tensor": {"dtype": "DT_FLOAT", "tensorShape": {"dim": [{"size": "3"}, {"size": "3"}, {"size": "64"}, {"size": "1"}]}}}, "dtype": {"type": "DT_FLOAT"}}}, {"name": "StatefulPartitionedCall/functional_14_1/conv_dw_2_bn_1/batchnorm/mul", "op": "Const", "attr": {"value": {"tensor": {"dtype": "DT_FLOAT", "tensorShape": {"dim": [{"size": "64"}]}}}, "dtype": {"type": "DT_FLOAT"}}}, {"name": "StatefulPartitionedCall/functional_14_1/conv_dw_2_bn_1/batchnorm/sub", "op": "Const", "attr": {"value": {"tensor": {"dtype": "DT_FLOAT", "tensorShape": {"dim": [{"size": "64"}]}}}, "dtype": {"type": "DT_FLOAT"}}}, {"name": "StatefulPartitionedCall/functional_14_1/conv_pw_2_1/convolution/merged_input", "op": "Const", "attr": {"value": {"tensor": {"dtype": "DT_FLOAT", "tensorShape": {"dim": [{"size": "1"}, {"size": "1"}, {"size": "64"}, {"size": "128"}]}}}, "dtype": {"type": "DT_FLOAT"}}}, {"name": "StatefulPartitionedCall/functional_14_1/conv_pw_2_bn_1/batchnorm/sub", "op": "Const", "attr": {"value": {"tensor": {"dtype": "DT_FLOAT", "tensorShape": {"dim": [{"size": "128"}]}}}, "dtype": {"type": "DT_FLOAT"}}}, {"name": "StatefulPartitionedCall/functional_14_1/conv_dw_3_1/depthwise/ReadVariableOp", "op": "Const", "attr": {"value": {"tensor": {"dtype": "DT_FLOAT", "tensorShape": {"dim": [{"size": "3"}, {"size": "3"}, {"size": "128"}, {"size": "1"}]}}}, "dtype": {"type": "DT_FLOAT"}}}, {"name": "StatefulPartitionedCall/functional_14_1/conv_dw_3_bn_1/batchnorm/mul", "op": "Const", "attr": {"value": {"tensor": {"dtype": "DT_FLOAT", "tensorShape": {"dim": [{"size": "128"}]}}}, "dtype": {"type": "DT_FLOAT"}}}, {"name": "StatefulPartitionedCall/functional_14_1/conv_dw_3_bn_1/batchnorm/sub", "op": "Const", "attr": {"value": {"tensor": {"dtype": "DT_FLOAT", "tensorShape": {"dim": [{"size": "128"}]}}}, "dtype": {"type": "DT_FLOAT"}}}, {"name": "StatefulPartitionedCall/functional_14_1/conv_pw_3_1/convolution/merged_input", "op": "Const", "attr": {"value": {"tensor": {"dtype": "DT_FLOAT", "tensorShape": {"dim": [{"size": "1"}, {"size": "1"}, {"size": "128"}, {"size": "128"}]}}}, "dtype": {"type": "DT_FLOAT"}}}, {"name": "StatefulPartitionedCall/functional_14_1/conv_pw_3_bn_1/batchnorm/sub", "op": "Const", "attr": {"value": {"tensor": {"dtype": "DT_FLOAT", "tensorShape": {"dim": [{"size": "128"}]}}}, "dtype": {"type": "DT_FLOAT"}}}, {"name": "StatefulPartitionedCall/functional_14_1/conv_pad_4_1/Const", "op": "Const", "attr": {"value": {"tensor": {"dtype": "DT_INT32", "tensorShape": {"dim": [{"size": "4"}, {"size": "2"}]}}}, "dtype": {"type": "DT_INT32"}}}, {"name": "StatefulPartitionedCall/functional_14_1/conv_dw_4_1/depthwise/ReadVariableOp", "op": "Const", "attr": {"value": {"tensor": {"dtype": "DT_FLOAT", "tensorShape": {"dim": [{"size": "3"}, {"size": "3"}, {"size": "128"}, {"size": "1"}]}}}, "dtype": {"type": "DT_FLOAT"}}}, {"name": "StatefulPartitionedCall/functional_14_1/conv_dw_4_bn_1/batchnorm/mul", "op": "Const", "attr": {"value": {"tensor": {"dtype": "DT_FLOAT", "tensorShape": {"dim": [{"size": "128"}]}}}, "dtype": {"type": "DT_FLOAT"}}}, {"name": "StatefulPartitionedCall/functional_14_1/conv_dw_4_bn_1/batchnorm/sub", "op": "Const", "attr": {"value": {"tensor": {"dtype": "DT_FLOAT", "tensorShape": {"dim": [{"size": "128"}]}}}, "dtype": {"type": "DT_FLOAT"}}}, {"name": "StatefulPartitionedCall/functional_14_1/conv_pw_4_1/convolution/merged_input", "op": "Const", "attr": {"value": {"tensor": {"dtype": "DT_FLOAT", "tensorShape": {"dim": [{"size": "1"}, {"size": "1"}, {"size": "128"}, {"size": "256"}]}}}, "dtype": {"type": "DT_FLOAT"}}}, {"name": "StatefulPartitionedCall/functional_14_1/conv_pw_4_bn_1/batchnorm/sub", "op": "Const", "attr": {"value": {"tensor": {"dtype": "DT_FLOAT", "tensorShape": {"dim": [{"size": "256"}]}}}, "dtype": {"type": "DT_FLOAT"}}}, {"name": "StatefulPartitionedCall/functional_14_1/conv_dw_5_1/depthwise/ReadVariableOp", "op": "Const", "attr": {"value": {"tensor": {"dtype": "DT_FLOAT", "tensorShape": {"dim": [{"size": "3"}, {"size": "3"}, {"size": "256"}, {"size": "1"}]}}}, "dtype": {"type": "DT_FLOAT"}}}, {"name": "StatefulPartitionedCall/functional_14_1/conv_dw_5_bn_1/batchnorm/mul", "op": "Const", "attr": {"value": {"tensor": {"dtype": "DT_FLOAT", "tensorShape": {"dim": [{"size": "256"}]}}}, "dtype": {"type": "DT_FLOAT"}}}, {"name": "StatefulPartitionedCall/functional_14_1/conv_dw_5_bn_1/batchnorm/sub", "op": "Const", "attr": {"value": {"tensor": {"dtype": "DT_FLOAT", "tensorShape": {"dim": [{"size": "256"}]}}}, "dtype": {"type": "DT_FLOAT"}}}, {"name": "StatefulPartitionedCall/functional_14_1/conv_pw_5_1/convolution/merged_input", "op": "Const", "attr": {"value": {"tensor": {"dtype": "DT_FLOAT", "tensorShape": {"dim": [{"size": "1"}, {"size": "1"}, {"size": "256"}, {"size": "256"}]}}}, "dtype": {"type": "DT_FLOAT"}}}, {"name": "StatefulPartitionedCall/functional_14_1/conv_pw_5_bn_1/batchnorm/sub", "op": "Const", "attr": {"value": {"tensor": {"dtype": "DT_FLOAT", "tensorShape": {"dim": [{"size": "256"}]}}}, "dtype": {"type": "DT_FLOAT"}}}, {"name": "StatefulPartitionedCall/functional_14_1/conv_pad_6_1/Const", "op": "Const", "attr": {"value": {"tensor": {"dtype": "DT_INT32", "tensorShape": {"dim": [{"size": "4"}, {"size": "2"}]}}}, "dtype": {"type": "DT_INT32"}}}, {"name": "StatefulPartitionedCall/functional_14_1/conv_dw_6_1/depthwise/ReadVariableOp", "op": "Const", "attr": {"value": {"tensor": {"dtype": "DT_FLOAT", "tensorShape": {"dim": [{"size": "3"}, {"size": "3"}, {"size": "256"}, {"size": "1"}]}}}, "dtype": {"type": "DT_FLOAT"}}}, {"name": "StatefulPartitionedCall/functional_14_1/conv_dw_6_bn_1/batchnorm/mul", "op": "Const", "attr": {"value": {"tensor": {"dtype": "DT_FLOAT", "tensorShape": {"dim": [{"size": "256"}]}}}, "dtype": {"type": "DT_FLOAT"}}}, {"name": "StatefulPartitionedCall/functional_14_1/conv_dw_6_bn_1/batchnorm/sub", "op": "Const", "attr": {"value": {"tensor": {"dtype": "DT_FLOAT", "tensorShape": {"dim": [{"size": "256"}]}}}, "dtype": {"type": "DT_FLOAT"}}}, {"name": "StatefulPartitionedCall/functional_14_1/conv_pw_6_1/convolution/merged_input", "op": "Const", "attr": {"value": {"tensor": {"dtype": "DT_FLOAT", "tensorShape": {"dim": [{"size": "1"}, {"size": "1"}, {"size": "256"}, {"size": "512"}]}}}, "dtype": {"type": "DT_FLOAT"}}}, {"name": "StatefulPartitionedCall/functional_14_1/conv_pw_6_bn_1/batchnorm/sub", "op": "Const", "attr": {"value": {"tensor": {"dtype": "DT_FLOAT", "tensorShape": {"dim": [{"size": "512"}]}}}, "dtype": {"type": "DT_FLOAT"}}}, {"name": "StatefulPartitionedCall/functional_14_1/conv_dw_7_1/depthwise/ReadVariableOp", "op": "Const", "attr": {"value": {"tensor": {"dtype": "DT_FLOAT", "tensorShape": {"dim": [{"size": "3"}, {"size": "3"}, {"size": "512"}, {"size": "1"}]}}}, "dtype": {"type": "DT_FLOAT"}}}, {"name": "StatefulPartitionedCall/functional_14_1/conv_dw_7_bn_1/batchnorm/mul", "op": "Const", "attr": {"value": {"tensor": {"dtype": "DT_FLOAT", "tensorShape": {"dim": [{"size": "512"}]}}}, "dtype": {"type": "DT_FLOAT"}}}, {"name": "StatefulPartitionedCall/functional_14_1/conv_dw_7_bn_1/batchnorm/sub", "op": "Const", "attr": {"value": {"tensor": {"dtype": "DT_FLOAT", "tensorShape": {"dim": [{"size": "512"}]}}}, "dtype": {"type": "DT_FLOAT"}}}, {"name": "StatefulPartitionedCall/functional_14_1/conv_pw_7_1/convolution/merged_input", "op": "Const", "attr": {"value": {"tensor": {"dtype": "DT_FLOAT", "tensorShape": {"dim": [{"size": "1"}, {"size": "1"}, {"size": "512"}, {"size": "512"}]}}}, "dtype": {"type": "DT_FLOAT"}}}, {"name": "StatefulPartitionedCall/functional_14_1/conv_pw_7_bn_1/batchnorm/sub", "op": "Const", "attr": {"value": {"tensor": {"dtype": "DT_FLOAT", "tensorShape": {"dim": [{"size": "512"}]}}}, "dtype": {"type": "DT_FLOAT"}}}, {"name": "StatefulPartitionedCall/functional_14_1/conv_dw_8_1/depthwise/ReadVariableOp", "op": "Const", "attr": {"value": {"tensor": {"dtype": "DT_FLOAT", "tensorShape": {"dim": [{"size": "3"}, {"size": "3"}, {"size": "512"}, {"size": "1"}]}}}, "dtype": {"type": "DT_FLOAT"}}}, {"name": "StatefulPartitionedCall/functional_14_1/conv_dw_8_bn_1/batchnorm/mul", "op": "Const", "attr": {"value": {"tensor": {"dtype": "DT_FLOAT", "tensorShape": {"dim": [{"size": "512"}]}}}, "dtype": {"type": "DT_FLOAT"}}}, {"name": "StatefulPartitionedCall/functional_14_1/conv_dw_8_bn_1/batchnorm/sub", "op": "Const", "attr": {"value": {"tensor": {"dtype": "DT_FLOAT", "tensorShape": {"dim": [{"size": "512"}]}}}, "dtype": {"type": "DT_FLOAT"}}}, {"name": "StatefulPartitionedCall/functional_14_1/conv_pw_8_1/convolution/merged_input", "op": "Const", "attr": {"value": {"tensor": {"dtype": "DT_FLOAT", "tensorShape": {"dim": [{"size": "1"}, {"size": "1"}, {"size": "512"}, {"size": "512"}]}}}, "dtype": {"type": "DT_FLOAT"}}}, {"name": "StatefulPartitionedCall/functional_14_1/conv_pw_8_bn_1/batchnorm/sub", "op": "Const", "attr": {"value": {"tensor": {"dtype": "DT_FLOAT", "tensorShape": {"dim": [{"size": "512"}]}}}, "dtype": {"type": "DT_FLOAT"}}}, {"name": "StatefulPartitionedCall/functional_14_1/conv_dw_9_1/depthwise/ReadVariableOp", "op": "Const", "attr": {"value": {"tensor": {"dtype": "DT_FLOAT", "tensorShape": {"dim": [{"size": "3"}, {"size": "3"}, {"size": "512"}, {"size": "1"}]}}}, "dtype": {"type": "DT_FLOAT"}}}, {"name": "StatefulPartitionedCall/functional_14_1/conv_dw_9_bn_1/batchnorm/mul", "op": "Const", "attr": {"value": {"tensor": {"dtype": "DT_FLOAT", "tensorShape": {"dim": [{"size": "512"}]}}}, "dtype": {"type": "DT_FLOAT"}}}, {"name": "StatefulPartitionedCall/functional_14_1/conv_dw_9_bn_1/batchnorm/sub", "op": "Const", "attr": {"value": {"tensor": {"dtype": "DT_FLOAT", "tensorShape": {"dim": [{"size": "512"}]}}}, "dtype": {"type": "DT_FLOAT"}}}, {"name": "StatefulPartitionedCall/functional_14_1/conv_pw_9_1/convolution/merged_input", "op": "Const", "attr": {"value": {"tensor": {"dtype": "DT_FLOAT", "tensorShape": {"dim": [{"size": "1"}, {"size": "1"}, {"size": "512"}, {"size": "512"}]}}}, "dtype": {"type": "DT_FLOAT"}}}, {"name": "StatefulPartitionedCall/functional_14_1/conv_pw_9_bn_1/batchnorm/sub", "op": "Const", "attr": {"value": {"tensor": {"dtype": "DT_FLOAT", "tensorShape": {"dim": [{"size": "512"}]}}}, "dtype": {"type": "DT_FLOAT"}}}, {"name": "StatefulPartitionedCall/functional_14_1/conv_dw_10_1/depthwise/ReadVariableOp", "op": "Const", "attr": {"value": {"tensor": {"dtype": "DT_FLOAT", "tensorShape": {"dim": [{"size": "3"}, {"size": "3"}, {"size": "512"}, {"size": "1"}]}}}, "dtype": {"type": "DT_FLOAT"}}}, {"name": "StatefulPartitionedCall/functional_14_1/conv_dw_10_bn_1/batchnorm/mul", "op": "Const", "attr": {"value": {"tensor": {"dtype": "DT_FLOAT", "tensorShape": {"dim": [{"size": "512"}]}}}, "dtype": {"type": "DT_FLOAT"}}}, {"name": "StatefulPartitionedCall/functional_14_1/conv_dw_10_bn_1/batchnorm/sub", "op": "Const", "attr": {"value": {"tensor": {"dtype": "DT_FLOAT", "tensorShape": {"dim": [{"size": "512"}]}}}, "dtype": {"type": "DT_FLOAT"}}}, {"name": "StatefulPartitionedCall/functional_14_1/conv_pw_10_1/convolution/merged_input", "op": "Const", "attr": {"value": {"tensor": {"dtype": "DT_FLOAT", "tensorShape": {"dim": [{"size": "1"}, {"size": "1"}, {"size": "512"}, {"size": "512"}]}}}, "dtype": {"type": "DT_FLOAT"}}}, {"name": "StatefulPartitionedCall/functional_14_1/conv_pw_10_bn_1/batchnorm/sub", "op": "Const", "attr": {"value": {"tensor": {"dtype": "DT_FLOAT", "tensorShape": {"dim": [{"size": "512"}]}}}, "dtype": {"type": "DT_FLOAT"}}}, {"name": "StatefulPartitionedCall/functional_14_1/conv_dw_11_1/depthwise/ReadVariableOp", "op": "Const", "attr": {"value": {"tensor": {"dtype": "DT_FLOAT", "tensorShape": {"dim": [{"size": "3"}, {"size": "3"}, {"size": "512"}, {"size": "1"}]}}}, "dtype": {"type": "DT_FLOAT"}}}, {"name": "StatefulPartitionedCall/functional_14_1/conv_dw_11_bn_1/batchnorm/mul", "op": "Const", "attr": {"value": {"tensor": {"dtype": "DT_FLOAT", "tensorShape": {"dim": [{"size": "512"}]}}}, "dtype": {"type": "DT_FLOAT"}}}, {"name": "StatefulPartitionedCall/functional_14_1/conv_dw_11_bn_1/batchnorm/sub", "op": "Const", "attr": {"value": {"tensor": {"dtype": "DT_FLOAT", "tensorShape": {"dim": [{"size": "512"}]}}}, "dtype": {"type": "DT_FLOAT"}}}, {"name": "StatefulPartitionedCall/functional_14_1/conv_pw_11_1/convolution/merged_input", "op": "Const", "attr": {"value": {"tensor": {"dtype": "DT_FLOAT", "tensorShape": {"dim": [{"size": "1"}, {"size": "1"}, {"size": "512"}, {"size": "512"}]}}}, "dtype": {"type": "DT_FLOAT"}}}, {"name": "StatefulPartitionedCall/functional_14_1/conv_pw_11_bn_1/batchnorm/sub", "op": "Const", "attr": {"value": {"tensor": {"dtype": "DT_FLOAT", "tensorShape": {"dim": [{"size": "512"}]}}}, "dtype": {"type": "DT_FLOAT"}}}, {"name": "StatefulPartitionedCall/functional_14_1/conv_pad_12_1/Const", "op": "Const", "attr": {"value": {"tensor": {"dtype": "DT_INT32", "tensorShape": {"dim": [{"size": "4"}, {"size": "2"}]}}}, "dtype": {"type": "DT_INT32"}}}, {"name": "StatefulPartitionedCall/functional_14_1/conv_dw_12_1/depthwise/ReadVariableOp", "op": "Const", "attr": {"value": {"tensor": {"dtype": "DT_FLOAT", "tensorShape": {"dim": [{"size": "3"}, {"size": "3"}, {"size": "512"}, {"size": "1"}]}}}, "dtype": {"type": "DT_FLOAT"}}}, {"name": "StatefulPartitionedCall/functional_14_1/conv_dw_12_bn_1/batchnorm/mul", "op": "Const", "attr": {"value": {"tensor": {"dtype": "DT_FLOAT", "tensorShape": {"dim": [{"size": "512"}]}}}, "dtype": {"type": "DT_FLOAT"}}}, {"name": "StatefulPartitionedCall/functional_14_1/conv_dw_12_bn_1/batchnorm/sub", "op": "Const", "attr": {"value": {"tensor": {"dtype": "DT_FLOAT", "tensorShape": {"dim": [{"size": "512"}]}}}, "dtype": {"type": "DT_FLOAT"}}}, {"name": "StatefulPartitionedCall/functional_14_1/conv_pw_12_1/convolution/merged_input", "op": "Const", "attr": {"value": {"tensor": {"dtype": "DT_FLOAT", "tensorShape": {"dim": [{"size": "1"}, {"size": "1"}, {"size": "512"}, {"size": "1024"}]}}}, "dtype": {"type": "DT_FLOAT"}}}, {"name": "StatefulPartitionedCall/functional_14_1/conv_pw_12_bn_1/batchnorm/sub", "op": "Const", "attr": {"value": {"tensor": {"dtype": "DT_FLOAT", "tensorShape": {"dim": [{"size": "1024"}]}}}, "dtype": {"type": "DT_FLOAT"}}}, {"name": "StatefulPartitionedCall/functional_14_1/conv_dw_13_1/depthwise/ReadVariableOp", "op": "Const", "attr": {"value": {"tensor": {"dtype": "DT_FLOAT", "tensorShape": {"dim": [{"size": "3"}, {"size": "3"}, {"size": "1024"}, {"size": "1"}]}}}, "dtype": {"type": "DT_FLOAT"}}}, {"name": "StatefulPartitionedCall/functional_14_1/conv_dw_13_bn_1/batchnorm/mul", "op": "Const", "attr": {"value": {"tensor": {"dtype": "DT_FLOAT", "tensorShape": {"dim": [{"size": "1024"}]}}}, "dtype": {"type": "DT_FLOAT"}}}, {"name": "StatefulPartitionedCall/functional_14_1/conv_dw_13_bn_1/batchnorm/sub", "op": "Const", "attr": {"value": {"tensor": {"dtype": "DT_FLOAT", "tensorShape": {"dim": [{"size": "1024"}]}}}, "dtype": {"type": "DT_FLOAT"}}}, {"name": "StatefulPartitionedCall/functional_14_1/conv_pw_13_1/convolution/merged_input", "op": "Const", "attr": {"value": {"tensor": {"dtype": "DT_FLOAT", "tensorShape": {"dim": [{"size": "1"}, {"size": "1"}, {"size": "1024"}, {"size": "1024"}]}}}, "dtype": {"type": "DT_FLOAT"}}}, {"name": "StatefulPartitionedCall/functional_14_1/conv_pw_13_bn_1/batchnorm/sub", "op": "Const", "attr": {"value": {"tensor": {"dtype": "DT_FLOAT", "tensorShape": {"dim": [{"size": "1024"}]}}}, "dtype": {"type": "DT_FLOAT"}}}, {"name": "StatefulPartitionedCall/functional_14_1/flatten_10_1/strided_slice/stack", "op": "Const", "attr": {"value": {"tensor": {"dtype": "DT_INT32", "tensorShape": {"dim": [{"size": "1"}]}}}, "dtype": {"type": "DT_INT32"}}}, {"name": "StatefulPartitionedCall/functional_14_1/flatten_10_1/strided_slice/stack_1", "op": "Const", "attr": {"value": {"tensor": {"dtype": "DT_INT32", "tensorShape": {"dim": [{"size": "1"}]}}}, "dtype": {"type": "DT_INT32"}}}, {"name": "StatefulPartitionedCall/functional_14_1/flatten_10_1/strided_slice/stack_2", "op": "Const", "attr": {"value": {"tensor": {"dtype": "DT_INT32", "tensorShape": {"dim": [{"size": "1"}]}}}, "dtype": {"type": "DT_INT32"}}}, {"name": "StatefulPartitionedCall/functional_14_1/flatten_10_1/Reshape/shape/1", "op": "Const", "attr": {"value": {"tensor": {"dtype": "DT_INT32", "tensorShape": {}}}, "dtype": {"type": "DT_INT32"}}}, {"name": "StatefulPartitionedCall/functional_14_1/dense_26_1/Cast/ReadVariableOp", "op": "Const", "attr": {"value": {"tensor": {"dtype": "DT_FLOAT", "tensorShape": {"dim": [{"size": "50176"}, {"size": "128"}]}}}, "dtype": {"type": "DT_FLOAT"}}}, {"name": "StatefulPartitionedCall/functional_14_1/dense_26_1/BiasAdd/ReadVariableOp", "op": "Const", "attr": {"value": {"tensor": {"dtype": "DT_FLOAT", "tensorShape": {"dim": [{"size": "128"}]}}}, "dtype": {"type": "DT_FLOAT"}}}, {"name": "StatefulPartitionedCall/functional_14_1/dense_27_1/Cast/ReadVariableOp", "op": "Const", "attr": {"value": {"tensor": {"dtype": "DT_FLOAT", "tensorShape": {"dim": [{"size": "128"}, {"size": "64"}]}}}, "dtype": {"type": "DT_FLOAT"}}}, {"name": "StatefulPartitionedCall/functional_14_1/dense_27_1/BiasAdd/ReadVariableOp", "op": "Const", "attr": {"value": {"tensor": {"dtype": "DT_FLOAT", "tensorShape": {"dim": [{"size": "64"}]}}}, "dtype": {"type": "DT_FLOAT"}}}, {"name": "StatefulPartitionedCall/functional_14_1/dense_28_1/Cast/ReadVariableOp", "op": "Const", "attr": {"value": {"tensor": {"dtype": "DT_FLOAT", "tensorShape": {"dim": [{"size": "64"}, {"size": "7"}]}}}, "dtype": {"type": "DT_FLOAT"}}}, {"name": "StatefulPartitionedCall/functional_14_1/dense_28_1/BiasAdd/ReadVariableOp", "op": "Const", "attr": {"value": {"tensor": {"dtype": "DT_FLOAT", "tensorShape": {"dim": [{"size": "7"}]}}}, "dtype": {"type": "DT_FLOAT"}}}, {"name": "input_layer_15", "op": "Placeholder", "attr": {"dtype": {"type": "DT_FLOAT"}, "shape": {"shape": {"dim": [{"size": "-1"}, {"size": "224"}, {"size": "224"}, {"size": "3"}]}}}}, {"name": "StatefulPartitionedCall/functional_14_1/conv1_bn_1/batchnorm/mul_1", "op": "Conv2D", "input": ["input_layer_15", "StatefulPartitionedCall/functional_14_1/conv1_1/convolution/merged_input"], "device": "/device:CPU:0", "attr": {"padding": {"s": "U0FNRQ=="}, "explicit_paddings": {"list": {}}, "data_format": {"s": "TkhXQw=="}, "dilations": {"list": {"i": ["1", "1", "1", "1"]}}, "use_cudnn_on_gpu": {"b": true}, "T": {"type": "DT_FLOAT"}, "strides": {"list": {"i": ["1", "2", "2", "1"]}}}}, {"name": "StatefulPartitionedCall/functional_14_1/conv1_bn_1/batchnorm/add_1", "op": "AddV2", "input": ["StatefulPartitionedCall/functional_14_1/conv1_bn_1/batchnorm/mul_1", "StatefulPartitionedCall/functional_14_1/conv1_bn_1/batchnorm/sub"], "attr": {"T": {"type": "DT_FLOAT"}}}, {"name": "StatefulPartitionedCall/functional_14_1/conv1_relu_1/Relu6", "op": "Relu6", "input": ["StatefulPartitionedCall/functional_14_1/conv1_bn_1/batchnorm/add_1"], "attr": {"T": {"type": "DT_FLOAT"}}}, {"name": "StatefulPartitionedCall/functional_14_1/conv_dw_1_1/depthwise", "op": "DepthwiseConv2dNative", "input": ["StatefulPartitionedCall/functional_14_1/conv1_relu_1/Relu6", "StatefulPartitionedCall/functional_14_1/conv_dw_1_1/depthwise/ReadVariableOp"], "attr": {"padding": {"s": "U0FNRQ=="}, "explicit_paddings": {"list": {}}, "data_format": {"s": "TkhXQw=="}, "dilations": {"list": {"i": ["1", "1", "1", "1"]}}, "T": {"type": "DT_FLOAT"}, "strides": {"list": {"i": ["1", "1", "1", "1"]}}}}, {"name": "StatefulPartitionedCall/functional_14_1/conv_dw_1_bn_1/batchnorm/mul_1", "op": "Mul", "input": ["StatefulPartitionedCall/functional_14_1/conv_dw_1_1/depthwise", "StatefulPartitionedCall/functional_14_1/conv_dw_1_bn_1/batchnorm/mul"], "attr": {"T": {"type": "DT_FLOAT"}}}, {"name": "StatefulPartitionedCall/functional_14_1/conv_dw_1_bn_1/batchnorm/add_1", "op": "AddV2", "input": ["StatefulPartitionedCall/functional_14_1/conv_dw_1_bn_1/batchnorm/mul_1", "StatefulPartitionedCall/functional_14_1/conv_dw_1_bn_1/batchnorm/sub"], "attr": {"T": {"type": "DT_FLOAT"}}}, {"name": "StatefulPartitionedCall/functional_14_1/conv_dw_1_relu_1/Relu6", "op": "Relu6", "input": ["StatefulPartitionedCall/functional_14_1/conv_dw_1_bn_1/batchnorm/add_1"], "attr": {"T": {"type": "DT_FLOAT"}}}, {"name": "StatefulPartitionedCall/functional_14_1/conv_pw_1_bn_1/batchnorm/mul_1", "op": "Conv2D", "input": ["StatefulPartitionedCall/functional_14_1/conv_dw_1_relu_1/Relu6", "StatefulPartitionedCall/functional_14_1/conv_pw_1_1/convolution/merged_input"], "device": "/device:CPU:0", "attr": {"padding": {"s": "U0FNRQ=="}, "explicit_paddings": {"list": {}}, "data_format": {"s": "TkhXQw=="}, "dilations": {"list": {"i": ["1", "1", "1", "1"]}}, "use_cudnn_on_gpu": {"b": true}, "T": {"type": "DT_FLOAT"}, "strides": {"list": {"i": ["1", "1", "1", "1"]}}}}, {"name": "StatefulPartitionedCall/functional_14_1/conv_pw_1_bn_1/batchnorm/add_1", "op": "AddV2", "input": ["StatefulPartitionedCall/functional_14_1/conv_pw_1_bn_1/batchnorm/mul_1", "StatefulPartitionedCall/functional_14_1/conv_pw_1_bn_1/batchnorm/sub"], "attr": {"T": {"type": "DT_FLOAT"}}}, {"name": "StatefulPartitionedCall/functional_14_1/conv_pw_1_relu_1/Relu6", "op": "Relu6", "input": ["StatefulPartitionedCall/functional_14_1/conv_pw_1_bn_1/batchnorm/add_1"], "attr": {"T": {"type": "DT_FLOAT"}}}, {"name": "StatefulPartitionedCall/functional_14_1/conv_pad_2_1/Pad", "op": "Pad", "input": ["StatefulPartitionedCall/functional_14_1/conv_pw_1_relu_1/Relu6", "StatefulPartitionedCall/functional_14_1/conv_pad_2_1/Const"], "attr": {"Tpaddings": {"type": "DT_INT32"}, "T": {"type": "DT_FLOAT"}}}, {"name": "StatefulPartitionedCall/functional_14_1/conv_dw_2_1/depthwise", "op": "DepthwiseConv2dNative", "input": ["StatefulPartitionedCall/functional_14_1/conv_pad_2_1/Pad", "StatefulPartitionedCall/functional_14_1/conv_dw_2_1/depthwise/ReadVariableOp"], "attr": {"padding": {"s": "VkFMSUQ="}, "explicit_paddings": {"list": {}}, "data_format": {"s": "TkhXQw=="}, "dilations": {"list": {"i": ["1", "1", "1", "1"]}}, "T": {"type": "DT_FLOAT"}, "strides": {"list": {"i": ["1", "2", "2", "1"]}}}}, {"name": "StatefulPartitionedCall/functional_14_1/conv_dw_2_bn_1/batchnorm/mul_1", "op": "Mul", "input": ["StatefulPartitionedCall/functional_14_1/conv_dw_2_1/depthwise", "StatefulPartitionedCall/functional_14_1/conv_dw_2_bn_1/batchnorm/mul"], "attr": {"T": {"type": "DT_FLOAT"}}}, {"name": "StatefulPartitionedCall/functional_14_1/conv_dw_2_bn_1/batchnorm/add_1", "op": "AddV2", "input": ["StatefulPartitionedCall/functional_14_1/conv_dw_2_bn_1/batchnorm/mul_1", "StatefulPartitionedCall/functional_14_1/conv_dw_2_bn_1/batchnorm/sub"], "attr": {"T": {"type": "DT_FLOAT"}}}, {"name": "StatefulPartitionedCall/functional_14_1/conv_dw_2_relu_1/Relu6", "op": "Relu6", "input": ["StatefulPartitionedCall/functional_14_1/conv_dw_2_bn_1/batchnorm/add_1"], "attr": {"T": {"type": "DT_FLOAT"}}}, {"name": "StatefulPartitionedCall/functional_14_1/conv_pw_2_bn_1/batchnorm/mul_1", "op": "Conv2D", "input": ["StatefulPartitionedCall/functional_14_1/conv_dw_2_relu_1/Relu6", "StatefulPartitionedCall/functional_14_1/conv_pw_2_1/convolution/merged_input"], "device": "/device:CPU:0", "attr": {"padding": {"s": "U0FNRQ=="}, "explicit_paddings": {"list": {}}, "data_format": {"s": "TkhXQw=="}, "dilations": {"list": {"i": ["1", "1", "1", "1"]}}, "use_cudnn_on_gpu": {"b": true}, "T": {"type": "DT_FLOAT"}, "strides": {"list": {"i": ["1", "1", "1", "1"]}}}}, {"name": "StatefulPartitionedCall/functional_14_1/conv_pw_2_bn_1/batchnorm/add_1", "op": "AddV2", "input": ["StatefulPartitionedCall/functional_14_1/conv_pw_2_bn_1/batchnorm/mul_1", "StatefulPartitionedCall/functional_14_1/conv_pw_2_bn_1/batchnorm/sub"], "attr": {"T": {"type": "DT_FLOAT"}}}, {"name": "StatefulPartitionedCall/functional_14_1/conv_pw_2_relu_1/Relu6", "op": "Relu6", "input": ["StatefulPartitionedCall/functional_14_1/conv_pw_2_bn_1/batchnorm/add_1"], "attr": {"T": {"type": "DT_FLOAT"}}}, {"name": "StatefulPartitionedCall/functional_14_1/conv_dw_3_1/depthwise", "op": "DepthwiseConv2dNative", "input": ["StatefulPartitionedCall/functional_14_1/conv_pw_2_relu_1/Relu6", "StatefulPartitionedCall/functional_14_1/conv_dw_3_1/depthwise/ReadVariableOp"], "attr": {"padding": {"s": "U0FNRQ=="}, "explicit_paddings": {"list": {}}, "data_format": {"s": "TkhXQw=="}, "dilations": {"list": {"i": ["1", "1", "1", "1"]}}, "T": {"type": "DT_FLOAT"}, "strides": {"list": {"i": ["1", "1", "1", "1"]}}}}, {"name": "StatefulPartitionedCall/functional_14_1/conv_dw_3_bn_1/batchnorm/mul_1", "op": "Mul", "input": ["StatefulPartitionedCall/functional_14_1/conv_dw_3_1/depthwise", "StatefulPartitionedCall/functional_14_1/conv_dw_3_bn_1/batchnorm/mul"], "attr": {"T": {"type": "DT_FLOAT"}}}, {"name": "StatefulPartitionedCall/functional_14_1/conv_dw_3_bn_1/batchnorm/add_1", "op": "AddV2", "input": ["StatefulPartitionedCall/functional_14_1/conv_dw_3_bn_1/batchnorm/mul_1", "StatefulPartitionedCall/functional_14_1/conv_dw_3_bn_1/batchnorm/sub"], "attr": {"T": {"type": "DT_FLOAT"}}}, {"name": "StatefulPartitionedCall/functional_14_1/conv_dw_3_relu_1/Relu6", "op": "Relu6", "input": ["StatefulPartitionedCall/functional_14_1/conv_dw_3_bn_1/batchnorm/add_1"], "attr": {"T": {"type": "DT_FLOAT"}}}, {"name": "StatefulPartitionedCall/functional_14_1/conv_pw_3_bn_1/batchnorm/mul_1", "op": "Conv2D", "input": ["StatefulPartitionedCall/functional_14_1/conv_dw_3_relu_1/Relu6", "StatefulPartitionedCall/functional_14_1/conv_pw_3_1/convolution/merged_input"], "device": "/device:CPU:0", "attr": {"padding": {"s": "U0FNRQ=="}, "explicit_paddings": {"list": {}}, "data_format": {"s": "TkhXQw=="}, "dilations": {"list": {"i": ["1", "1", "1", "1"]}}, "use_cudnn_on_gpu": {"b": true}, "T": {"type": "DT_FLOAT"}, "strides": {"list": {"i": ["1", "1", "1", "1"]}}}}, {"name": "StatefulPartitionedCall/functional_14_1/conv_pw_3_bn_1/batchnorm/add_1", "op": "AddV2", "input": ["StatefulPartitionedCall/functional_14_1/conv_pw_3_bn_1/batchnorm/mul_1", "StatefulPartitionedCall/functional_14_1/conv_pw_3_bn_1/batchnorm/sub"], "attr": {"T": {"type": "DT_FLOAT"}}}, {"name": "StatefulPartitionedCall/functional_14_1/conv_pw_3_relu_1/Relu6", "op": "Relu6", "input": ["StatefulPartitionedCall/functional_14_1/conv_pw_3_bn_1/batchnorm/add_1"], "attr": {"T": {"type": "DT_FLOAT"}}}, {"name": "StatefulPartitionedCall/functional_14_1/conv_pad_4_1/Pad", "op": "Pad", "input": ["StatefulPartitionedCall/functional_14_1/conv_pw_3_relu_1/Relu6", "StatefulPartitionedCall/functional_14_1/conv_pad_4_1/Const"], "attr": {"Tpaddings": {"type": "DT_INT32"}, "T": {"type": "DT_FLOAT"}}}, {"name": "StatefulPartitionedCall/functional_14_1/conv_dw_4_1/depthwise", "op": "DepthwiseConv2dNative", "input": ["StatefulPartitionedCall/functional_14_1/conv_pad_4_1/Pad", "StatefulPartitionedCall/functional_14_1/conv_dw_4_1/depthwise/ReadVariableOp"], "attr": {"padding": {"s": "VkFMSUQ="}, "explicit_paddings": {"list": {}}, "data_format": {"s": "TkhXQw=="}, "dilations": {"list": {"i": ["1", "1", "1", "1"]}}, "T": {"type": "DT_FLOAT"}, "strides": {"list": {"i": ["1", "2", "2", "1"]}}}}, {"name": "StatefulPartitionedCall/functional_14_1/conv_dw_4_bn_1/batchnorm/mul_1", "op": "Mul", "input": ["StatefulPartitionedCall/functional_14_1/conv_dw_4_1/depthwise", "StatefulPartitionedCall/functional_14_1/conv_dw_4_bn_1/batchnorm/mul"], "attr": {"T": {"type": "DT_FLOAT"}}}, {"name": "StatefulPartitionedCall/functional_14_1/conv_dw_4_bn_1/batchnorm/add_1", "op": "AddV2", "input": ["StatefulPartitionedCall/functional_14_1/conv_dw_4_bn_1/batchnorm/mul_1", "StatefulPartitionedCall/functional_14_1/conv_dw_4_bn_1/batchnorm/sub"], "attr": {"T": {"type": "DT_FLOAT"}}}, {"name": "StatefulPartitionedCall/functional_14_1/conv_dw_4_relu_1/Relu6", "op": "Relu6", "input": ["StatefulPartitionedCall/functional_14_1/conv_dw_4_bn_1/batchnorm/add_1"], "attr": {"T": {"type": "DT_FLOAT"}}}, {"name": "StatefulPartitionedCall/functional_14_1/conv_pw_4_bn_1/batchnorm/mul_1", "op": "Conv2D", "input": ["StatefulPartitionedCall/functional_14_1/conv_dw_4_relu_1/Relu6", "StatefulPartitionedCall/functional_14_1/conv_pw_4_1/convolution/merged_input"], "device": "/device:CPU:0", "attr": {"padding": {"s": "U0FNRQ=="}, "explicit_paddings": {"list": {}}, "data_format": {"s": "TkhXQw=="}, "dilations": {"list": {"i": ["1", "1", "1", "1"]}}, "use_cudnn_on_gpu": {"b": true}, "T": {"type": "DT_FLOAT"}, "strides": {"list": {"i": ["1", "1", "1", "1"]}}}}, {"name": "StatefulPartitionedCall/functional_14_1/conv_pw_4_bn_1/batchnorm/add_1", "op": "AddV2", "input": ["StatefulPartitionedCall/functional_14_1/conv_pw_4_bn_1/batchnorm/mul_1", "StatefulPartitionedCall/functional_14_1/conv_pw_4_bn_1/batchnorm/sub"], "attr": {"T": {"type": "DT_FLOAT"}}}, {"name": "StatefulPartitionedCall/functional_14_1/conv_pw_4_relu_1/Relu6", "op": "Relu6", "input": ["StatefulPartitionedCall/functional_14_1/conv_pw_4_bn_1/batchnorm/add_1"], "attr": {"T": {"type": "DT_FLOAT"}}}, {"name": "StatefulPartitionedCall/functional_14_1/conv_dw_5_1/depthwise", "op": "DepthwiseConv2dNative", "input": ["StatefulPartitionedCall/functional_14_1/conv_pw_4_relu_1/Relu6", "StatefulPartitionedCall/functional_14_1/conv_dw_5_1/depthwise/ReadVariableOp"], "attr": {"padding": {"s": "U0FNRQ=="}, "explicit_paddings": {"list": {}}, "data_format": {"s": "TkhXQw=="}, "dilations": {"list": {"i": ["1", "1", "1", "1"]}}, "T": {"type": "DT_FLOAT"}, "strides": {"list": {"i": ["1", "1", "1", "1"]}}}}, {"name": "StatefulPartitionedCall/functional_14_1/conv_dw_5_bn_1/batchnorm/mul_1", "op": "Mul", "input": ["StatefulPartitionedCall/functional_14_1/conv_dw_5_1/depthwise", "StatefulPartitionedCall/functional_14_1/conv_dw_5_bn_1/batchnorm/mul"], "attr": {"T": {"type": "DT_FLOAT"}}}, {"name": "StatefulPartitionedCall/functional_14_1/conv_dw_5_bn_1/batchnorm/add_1", "op": "AddV2", "input": ["StatefulPartitionedCall/functional_14_1/conv_dw_5_bn_1/batchnorm/mul_1", "StatefulPartitionedCall/functional_14_1/conv_dw_5_bn_1/batchnorm/sub"], "attr": {"T": {"type": "DT_FLOAT"}}}, {"name": "StatefulPartitionedCall/functional_14_1/conv_dw_5_relu_1/Relu6", "op": "Relu6", "input": ["StatefulPartitionedCall/functional_14_1/conv_dw_5_bn_1/batchnorm/add_1"], "attr": {"T": {"type": "DT_FLOAT"}}}, {"name": "StatefulPartitionedCall/functional_14_1/conv_pw_5_bn_1/batchnorm/mul_1", "op": "Conv2D", "input": ["StatefulPartitionedCall/functional_14_1/conv_dw_5_relu_1/Relu6", "StatefulPartitionedCall/functional_14_1/conv_pw_5_1/convolution/merged_input"], "device": "/device:CPU:0", "attr": {"padding": {"s": "U0FNRQ=="}, "explicit_paddings": {"list": {}}, "data_format": {"s": "TkhXQw=="}, "dilations": {"list": {"i": ["1", "1", "1", "1"]}}, "use_cudnn_on_gpu": {"b": true}, "T": {"type": "DT_FLOAT"}, "strides": {"list": {"i": ["1", "1", "1", "1"]}}}}, {"name": "StatefulPartitionedCall/functional_14_1/conv_pw_5_bn_1/batchnorm/add_1", "op": "AddV2", "input": ["StatefulPartitionedCall/functional_14_1/conv_pw_5_bn_1/batchnorm/mul_1", "StatefulPartitionedCall/functional_14_1/conv_pw_5_bn_1/batchnorm/sub"], "attr": {"T": {"type": "DT_FLOAT"}}}, {"name": "StatefulPartitionedCall/functional_14_1/conv_pw_5_relu_1/Relu6", "op": "Relu6", "input": ["StatefulPartitionedCall/functional_14_1/conv_pw_5_bn_1/batchnorm/add_1"], "attr": {"T": {"type": "DT_FLOAT"}}}, {"name": "StatefulPartitionedCall/functional_14_1/conv_pad_6_1/Pad", "op": "Pad", "input": ["StatefulPartitionedCall/functional_14_1/conv_pw_5_relu_1/Relu6", "StatefulPartitionedCall/functional_14_1/conv_pad_6_1/Const"], "attr": {"Tpaddings": {"type": "DT_INT32"}, "T": {"type": "DT_FLOAT"}}}, {"name": "StatefulPartitionedCall/functional_14_1/conv_dw_6_1/depthwise", "op": "DepthwiseConv2dNative", "input": ["StatefulPartitionedCall/functional_14_1/conv_pad_6_1/Pad", "StatefulPartitionedCall/functional_14_1/conv_dw_6_1/depthwise/ReadVariableOp"], "attr": {"padding": {"s": "VkFMSUQ="}, "explicit_paddings": {"list": {}}, "data_format": {"s": "TkhXQw=="}, "dilations": {"list": {"i": ["1", "1", "1", "1"]}}, "T": {"type": "DT_FLOAT"}, "strides": {"list": {"i": ["1", "2", "2", "1"]}}}}, {"name": "StatefulPartitionedCall/functional_14_1/conv_dw_6_bn_1/batchnorm/mul_1", "op": "Mul", "input": ["StatefulPartitionedCall/functional_14_1/conv_dw_6_1/depthwise", "StatefulPartitionedCall/functional_14_1/conv_dw_6_bn_1/batchnorm/mul"], "attr": {"T": {"type": "DT_FLOAT"}}}, {"name": "StatefulPartitionedCall/functional_14_1/conv_dw_6_bn_1/batchnorm/add_1", "op": "AddV2", "input": ["StatefulPartitionedCall/functional_14_1/conv_dw_6_bn_1/batchnorm/mul_1", "StatefulPartitionedCall/functional_14_1/conv_dw_6_bn_1/batchnorm/sub"], "attr": {"T": {"type": "DT_FLOAT"}}}, {"name": "StatefulPartitionedCall/functional_14_1/conv_dw_6_relu_1/Relu6", "op": "Relu6", "input": ["StatefulPartitionedCall/functional_14_1/conv_dw_6_bn_1/batchnorm/add_1"], "attr": {"T": {"type": "DT_FLOAT"}}}, {"name": "StatefulPartitionedCall/functional_14_1/conv_pw_6_bn_1/batchnorm/mul_1", "op": "Conv2D", "input": ["StatefulPartitionedCall/functional_14_1/conv_dw_6_relu_1/Relu6", "StatefulPartitionedCall/functional_14_1/conv_pw_6_1/convolution/merged_input"], "device": "/device:CPU:0", "attr": {"padding": {"s": "U0FNRQ=="}, "explicit_paddings": {"list": {}}, "data_format": {"s": "TkhXQw=="}, "dilations": {"list": {"i": ["1", "1", "1", "1"]}}, "use_cudnn_on_gpu": {"b": true}, "T": {"type": "DT_FLOAT"}, "strides": {"list": {"i": ["1", "1", "1", "1"]}}}}, {"name": "StatefulPartitionedCall/functional_14_1/conv_pw_6_bn_1/batchnorm/add_1", "op": "AddV2", "input": ["StatefulPartitionedCall/functional_14_1/conv_pw_6_bn_1/batchnorm/mul_1", "StatefulPartitionedCall/functional_14_1/conv_pw_6_bn_1/batchnorm/sub"], "attr": {"T": {"type": "DT_FLOAT"}}}, {"name": "StatefulPartitionedCall/functional_14_1/conv_pw_6_relu_1/Relu6", "op": "Relu6", "input": ["StatefulPartitionedCall/functional_14_1/conv_pw_6_bn_1/batchnorm/add_1"], "attr": {"T": {"type": "DT_FLOAT"}}}, {"name": "StatefulPartitionedCall/functional_14_1/conv_dw_7_1/depthwise", "op": "DepthwiseConv2dNative", "input": ["StatefulPartitionedCall/functional_14_1/conv_pw_6_relu_1/Relu6", "StatefulPartitionedCall/functional_14_1/conv_dw_7_1/depthwise/ReadVariableOp"], "attr": {"padding": {"s": "U0FNRQ=="}, "explicit_paddings": {"list": {}}, "data_format": {"s": "TkhXQw=="}, "dilations": {"list": {"i": ["1", "1", "1", "1"]}}, "T": {"type": "DT_FLOAT"}, "strides": {"list": {"i": ["1", "1", "1", "1"]}}}}, {"name": "StatefulPartitionedCall/functional_14_1/conv_dw_7_bn_1/batchnorm/mul_1", "op": "Mul", "input": ["StatefulPartitionedCall/functional_14_1/conv_dw_7_1/depthwise", "StatefulPartitionedCall/functional_14_1/conv_dw_7_bn_1/batchnorm/mul"], "attr": {"T": {"type": "DT_FLOAT"}}}, {"name": "StatefulPartitionedCall/functional_14_1/conv_dw_7_bn_1/batchnorm/add_1", "op": "AddV2", "input": ["StatefulPartitionedCall/functional_14_1/conv_dw_7_bn_1/batchnorm/mul_1", "StatefulPartitionedCall/functional_14_1/conv_dw_7_bn_1/batchnorm/sub"], "attr": {"T": {"type": "DT_FLOAT"}}}, {"name": "StatefulPartitionedCall/functional_14_1/conv_dw_7_relu_1/Relu6", "op": "Relu6", "input": ["StatefulPartitionedCall/functional_14_1/conv_dw_7_bn_1/batchnorm/add_1"], "attr": {"T": {"type": "DT_FLOAT"}}}, {"name": "StatefulPartitionedCall/functional_14_1/conv_pw_7_bn_1/batchnorm/mul_1", "op": "Conv2D", "input": ["StatefulPartitionedCall/functional_14_1/conv_dw_7_relu_1/Relu6", "StatefulPartitionedCall/functional_14_1/conv_pw_7_1/convolution/merged_input"], "device": "/device:CPU:0", "attr": {"padding": {"s": "U0FNRQ=="}, "explicit_paddings": {"list": {}}, "data_format": {"s": "TkhXQw=="}, "dilations": {"list": {"i": ["1", "1", "1", "1"]}}, "use_cudnn_on_gpu": {"b": true}, "T": {"type": "DT_FLOAT"}, "strides": {"list": {"i": ["1", "1", "1", "1"]}}}}, {"name": "StatefulPartitionedCall/functional_14_1/conv_pw_7_bn_1/batchnorm/add_1", "op": "AddV2", "input": ["StatefulPartitionedCall/functional_14_1/conv_pw_7_bn_1/batchnorm/mul_1", "StatefulPartitionedCall/functional_14_1/conv_pw_7_bn_1/batchnorm/sub"], "attr": {"T": {"type": "DT_FLOAT"}}}, {"name": "StatefulPartitionedCall/functional_14_1/conv_pw_7_relu_1/Relu6", "op": "Relu6", "input": ["StatefulPartitionedCall/functional_14_1/conv_pw_7_bn_1/batchnorm/add_1"], "attr": {"T": {"type": "DT_FLOAT"}}}, {"name": "StatefulPartitionedCall/functional_14_1/conv_dw_8_1/depthwise", "op": "DepthwiseConv2dNative", "input": ["StatefulPartitionedCall/functional_14_1/conv_pw_7_relu_1/Relu6", "StatefulPartitionedCall/functional_14_1/conv_dw_8_1/depthwise/ReadVariableOp"], "attr": {"padding": {"s": "U0FNRQ=="}, "explicit_paddings": {"list": {}}, "data_format": {"s": "TkhXQw=="}, "dilations": {"list": {"i": ["1", "1", "1", "1"]}}, "T": {"type": "DT_FLOAT"}, "strides": {"list": {"i": ["1", "1", "1", "1"]}}}}, {"name": "StatefulPartitionedCall/functional_14_1/conv_dw_8_bn_1/batchnorm/mul_1", "op": "Mul", "input": ["StatefulPartitionedCall/functional_14_1/conv_dw_8_1/depthwise", "StatefulPartitionedCall/functional_14_1/conv_dw_8_bn_1/batchnorm/mul"], "attr": {"T": {"type": "DT_FLOAT"}}}, {"name": "StatefulPartitionedCall/functional_14_1/conv_dw_8_bn_1/batchnorm/add_1", "op": "AddV2", "input": ["StatefulPartitionedCall/functional_14_1/conv_dw_8_bn_1/batchnorm/mul_1", "StatefulPartitionedCall/functional_14_1/conv_dw_8_bn_1/batchnorm/sub"], "attr": {"T": {"type": "DT_FLOAT"}}}, {"name": "StatefulPartitionedCall/functional_14_1/conv_dw_8_relu_1/Relu6", "op": "Relu6", "input": ["StatefulPartitionedCall/functional_14_1/conv_dw_8_bn_1/batchnorm/add_1"], "attr": {"T": {"type": "DT_FLOAT"}}}, {"name": "StatefulPartitionedCall/functional_14_1/conv_pw_8_bn_1/batchnorm/mul_1", "op": "Conv2D", "input": ["StatefulPartitionedCall/functional_14_1/conv_dw_8_relu_1/Relu6", "StatefulPartitionedCall/functional_14_1/conv_pw_8_1/convolution/merged_input"], "device": "/device:CPU:0", "attr": {"padding": {"s": "U0FNRQ=="}, "explicit_paddings": {"list": {}}, "data_format": {"s": "TkhXQw=="}, "dilations": {"list": {"i": ["1", "1", "1", "1"]}}, "use_cudnn_on_gpu": {"b": true}, "T": {"type": "DT_FLOAT"}, "strides": {"list": {"i": ["1", "1", "1", "1"]}}}}, {"name": "StatefulPartitionedCall/functional_14_1/conv_pw_8_bn_1/batchnorm/add_1", "op": "AddV2", "input": ["StatefulPartitionedCall/functional_14_1/conv_pw_8_bn_1/batchnorm/mul_1", "StatefulPartitionedCall/functional_14_1/conv_pw_8_bn_1/batchnorm/sub"], "attr": {"T": {"type": "DT_FLOAT"}}}, {"name": "StatefulPartitionedCall/functional_14_1/conv_pw_8_relu_1/Relu6", "op": "Relu6", "input": ["StatefulPartitionedCall/functional_14_1/conv_pw_8_bn_1/batchnorm/add_1"], "attr": {"T": {"type": "DT_FLOAT"}}}, {"name": "StatefulPartitionedCall/functional_14_1/conv_dw_9_1/depthwise", "op": "DepthwiseConv2dNative", "input": ["StatefulPartitionedCall/functional_14_1/conv_pw_8_relu_1/Relu6", "StatefulPartitionedCall/functional_14_1/conv_dw_9_1/depthwise/ReadVariableOp"], "attr": {"padding": {"s": "U0FNRQ=="}, "explicit_paddings": {"list": {}}, "data_format": {"s": "TkhXQw=="}, "dilations": {"list": {"i": ["1", "1", "1", "1"]}}, "T": {"type": "DT_FLOAT"}, "strides": {"list": {"i": ["1", "1", "1", "1"]}}}}, {"name": "StatefulPartitionedCall/functional_14_1/conv_dw_9_bn_1/batchnorm/mul_1", "op": "Mul", "input": ["StatefulPartitionedCall/functional_14_1/conv_dw_9_1/depthwise", "StatefulPartitionedCall/functional_14_1/conv_dw_9_bn_1/batchnorm/mul"], "attr": {"T": {"type": "DT_FLOAT"}}}, {"name": "StatefulPartitionedCall/functional_14_1/conv_dw_9_bn_1/batchnorm/add_1", "op": "AddV2", "input": ["StatefulPartitionedCall/functional_14_1/conv_dw_9_bn_1/batchnorm/mul_1", "StatefulPartitionedCall/functional_14_1/conv_dw_9_bn_1/batchnorm/sub"], "attr": {"T": {"type": "DT_FLOAT"}}}, {"name": "StatefulPartitionedCall/functional_14_1/conv_dw_9_relu_1/Relu6", "op": "Relu6", "input": ["StatefulPartitionedCall/functional_14_1/conv_dw_9_bn_1/batchnorm/add_1"], "attr": {"T": {"type": "DT_FLOAT"}}}, {"name": "StatefulPartitionedCall/functional_14_1/conv_pw_9_bn_1/batchnorm/mul_1", "op": "Conv2D", "input": ["StatefulPartitionedCall/functional_14_1/conv_dw_9_relu_1/Relu6", "StatefulPartitionedCall/functional_14_1/conv_pw_9_1/convolution/merged_input"], "device": "/device:CPU:0", "attr": {"padding": {"s": "U0FNRQ=="}, "explicit_paddings": {"list": {}}, "data_format": {"s": "TkhXQw=="}, "dilations": {"list": {"i": ["1", "1", "1", "1"]}}, "use_cudnn_on_gpu": {"b": true}, "T": {"type": "DT_FLOAT"}, "strides": {"list": {"i": ["1", "1", "1", "1"]}}}}, {"name": "StatefulPartitionedCall/functional_14_1/conv_pw_9_bn_1/batchnorm/add_1", "op": "AddV2", "input": ["StatefulPartitionedCall/functional_14_1/conv_pw_9_bn_1/batchnorm/mul_1", "StatefulPartitionedCall/functional_14_1/conv_pw_9_bn_1/batchnorm/sub"], "attr": {"T": {"type": "DT_FLOAT"}}}, {"name": "StatefulPartitionedCall/functional_14_1/conv_pw_9_relu_1/Relu6", "op": "Relu6", "input": ["StatefulPartitionedCall/functional_14_1/conv_pw_9_bn_1/batchnorm/add_1"], "attr": {"T": {"type": "DT_FLOAT"}}}, {"name": "StatefulPartitionedCall/functional_14_1/conv_dw_10_1/depthwise", "op": "DepthwiseConv2dNative", "input": ["StatefulPartitionedCall/functional_14_1/conv_pw_9_relu_1/Relu6", "StatefulPartitionedCall/functional_14_1/conv_dw_10_1/depthwise/ReadVariableOp"], "attr": {"padding": {"s": "U0FNRQ=="}, "explicit_paddings": {"list": {}}, "data_format": {"s": "TkhXQw=="}, "dilations": {"list": {"i": ["1", "1", "1", "1"]}}, "T": {"type": "DT_FLOAT"}, "strides": {"list": {"i": ["1", "1", "1", "1"]}}}}, {"name": "StatefulPartitionedCall/functional_14_1/conv_dw_10_bn_1/batchnorm/mul_1", "op": "Mul", "input": ["StatefulPartitionedCall/functional_14_1/conv_dw_10_1/depthwise", "StatefulPartitionedCall/functional_14_1/conv_dw_10_bn_1/batchnorm/mul"], "attr": {"T": {"type": "DT_FLOAT"}}}, {"name": "StatefulPartitionedCall/functional_14_1/conv_dw_10_bn_1/batchnorm/add_1", "op": "AddV2", "input": ["StatefulPartitionedCall/functional_14_1/conv_dw_10_bn_1/batchnorm/mul_1", "StatefulPartitionedCall/functional_14_1/conv_dw_10_bn_1/batchnorm/sub"], "attr": {"T": {"type": "DT_FLOAT"}}}, {"name": "StatefulPartitionedCall/functional_14_1/conv_dw_10_relu_1/Relu6", "op": "Relu6", "input": ["StatefulPartitionedCall/functional_14_1/conv_dw_10_bn_1/batchnorm/add_1"], "attr": {"T": {"type": "DT_FLOAT"}}}, {"name": "StatefulPartitionedCall/functional_14_1/conv_pw_10_bn_1/batchnorm/mul_1", "op": "Conv2D", "input": ["StatefulPartitionedCall/functional_14_1/conv_dw_10_relu_1/Relu6", "StatefulPartitionedCall/functional_14_1/conv_pw_10_1/convolution/merged_input"], "device": "/device:CPU:0", "attr": {"padding": {"s": "U0FNRQ=="}, "explicit_paddings": {"list": {}}, "data_format": {"s": "TkhXQw=="}, "dilations": {"list": {"i": ["1", "1", "1", "1"]}}, "use_cudnn_on_gpu": {"b": true}, "T": {"type": "DT_FLOAT"}, "strides": {"list": {"i": ["1", "1", "1", "1"]}}}}, {"name": "StatefulPartitionedCall/functional_14_1/conv_pw_10_bn_1/batchnorm/add_1", "op": "AddV2", "input": ["StatefulPartitionedCall/functional_14_1/conv_pw_10_bn_1/batchnorm/mul_1", "StatefulPartitionedCall/functional_14_1/conv_pw_10_bn_1/batchnorm/sub"], "attr": {"T": {"type": "DT_FLOAT"}}}, {"name": "StatefulPartitionedCall/functional_14_1/conv_pw_10_relu_1/Relu6", "op": "Relu6", "input": ["StatefulPartitionedCall/functional_14_1/conv_pw_10_bn_1/batchnorm/add_1"], "attr": {"T": {"type": "DT_FLOAT"}}}, {"name": "StatefulPartitionedCall/functional_14_1/conv_dw_11_1/depthwise", "op": "DepthwiseConv2dNative", "input": ["StatefulPartitionedCall/functional_14_1/conv_pw_10_relu_1/Relu6", "StatefulPartitionedCall/functional_14_1/conv_dw_11_1/depthwise/ReadVariableOp"], "attr": {"padding": {"s": "U0FNRQ=="}, "explicit_paddings": {"list": {}}, "data_format": {"s": "TkhXQw=="}, "dilations": {"list": {"i": ["1", "1", "1", "1"]}}, "T": {"type": "DT_FLOAT"}, "strides": {"list": {"i": ["1", "1", "1", "1"]}}}}, {"name": "StatefulPartitionedCall/functional_14_1/conv_dw_11_bn_1/batchnorm/mul_1", "op": "Mul", "input": ["StatefulPartitionedCall/functional_14_1/conv_dw_11_1/depthwise", "StatefulPartitionedCall/functional_14_1/conv_dw_11_bn_1/batchnorm/mul"], "attr": {"T": {"type": "DT_FLOAT"}}}, {"name": "StatefulPartitionedCall/functional_14_1/conv_dw_11_bn_1/batchnorm/add_1", "op": "AddV2", "input": ["StatefulPartitionedCall/functional_14_1/conv_dw_11_bn_1/batchnorm/mul_1", "StatefulPartitionedCall/functional_14_1/conv_dw_11_bn_1/batchnorm/sub"], "attr": {"T": {"type": "DT_FLOAT"}}}, {"name": "StatefulPartitionedCall/functional_14_1/conv_dw_11_relu_1/Relu6", "op": "Relu6", "input": ["StatefulPartitionedCall/functional_14_1/conv_dw_11_bn_1/batchnorm/add_1"], "attr": {"T": {"type": "DT_FLOAT"}}}, {"name": "StatefulPartitionedCall/functional_14_1/conv_pw_11_bn_1/batchnorm/mul_1", "op": "Conv2D", "input": ["StatefulPartitionedCall/functional_14_1/conv_dw_11_relu_1/Relu6", "StatefulPartitionedCall/functional_14_1/conv_pw_11_1/convolution/merged_input"], "device": "/device:CPU:0", "attr": {"padding": {"s": "U0FNRQ=="}, "explicit_paddings": {"list": {}}, "data_format": {"s": "TkhXQw=="}, "dilations": {"list": {"i": ["1", "1", "1", "1"]}}, "use_cudnn_on_gpu": {"b": true}, "T": {"type": "DT_FLOAT"}, "strides": {"list": {"i": ["1", "1", "1", "1"]}}}}, {"name": "StatefulPartitionedCall/functional_14_1/conv_pw_11_bn_1/batchnorm/add_1", "op": "AddV2", "input": ["StatefulPartitionedCall/functional_14_1/conv_pw_11_bn_1/batchnorm/mul_1", "StatefulPartitionedCall/functional_14_1/conv_pw_11_bn_1/batchnorm/sub"], "attr": {"T": {"type": "DT_FLOAT"}}}, {"name": "StatefulPartitionedCall/functional_14_1/conv_pw_11_relu_1/Relu6", "op": "Relu6", "input": ["StatefulPartitionedCall/functional_14_1/conv_pw_11_bn_1/batchnorm/add_1"], "attr": {"T": {"type": "DT_FLOAT"}}}, {"name": "StatefulPartitionedCall/functional_14_1/conv_pad_12_1/Pad", "op": "Pad", "input": ["StatefulPartitionedCall/functional_14_1/conv_pw_11_relu_1/Relu6", "StatefulPartitionedCall/functional_14_1/conv_pad_12_1/Const"], "attr": {"Tpaddings": {"type": "DT_INT32"}, "T": {"type": "DT_FLOAT"}}}, {"name": "StatefulPartitionedCall/functional_14_1/conv_dw_12_1/depthwise", "op": "DepthwiseConv2dNative", "input": ["StatefulPartitionedCall/functional_14_1/conv_pad_12_1/Pad", "StatefulPartitionedCall/functional_14_1/conv_dw_12_1/depthwise/ReadVariableOp"], "attr": {"padding": {"s": "VkFMSUQ="}, "explicit_paddings": {"list": {}}, "data_format": {"s": "TkhXQw=="}, "dilations": {"list": {"i": ["1", "1", "1", "1"]}}, "T": {"type": "DT_FLOAT"}, "strides": {"list": {"i": ["1", "2", "2", "1"]}}}}, {"name": "StatefulPartitionedCall/functional_14_1/conv_dw_12_bn_1/batchnorm/mul_1", "op": "Mul", "input": ["StatefulPartitionedCall/functional_14_1/conv_dw_12_1/depthwise", "StatefulPartitionedCall/functional_14_1/conv_dw_12_bn_1/batchnorm/mul"], "attr": {"T": {"type": "DT_FLOAT"}}}, {"name": "StatefulPartitionedCall/functional_14_1/conv_dw_12_bn_1/batchnorm/add_1", "op": "AddV2", "input": ["StatefulPartitionedCall/functional_14_1/conv_dw_12_bn_1/batchnorm/mul_1", "StatefulPartitionedCall/functional_14_1/conv_dw_12_bn_1/batchnorm/sub"], "attr": {"T": {"type": "DT_FLOAT"}}}, {"name": "StatefulPartitionedCall/functional_14_1/conv_dw_12_relu_1/Relu6", "op": "Relu6", "input": ["StatefulPartitionedCall/functional_14_1/conv_dw_12_bn_1/batchnorm/add_1"], "attr": {"T": {"type": "DT_FLOAT"}}}, {"name": "StatefulPartitionedCall/functional_14_1/conv_pw_12_bn_1/batchnorm/mul_1", "op": "Conv2D", "input": ["StatefulPartitionedCall/functional_14_1/conv_dw_12_relu_1/Relu6", "StatefulPartitionedCall/functional_14_1/conv_pw_12_1/convolution/merged_input"], "device": "/device:CPU:0", "attr": {"padding": {"s": "U0FNRQ=="}, "explicit_paddings": {"list": {}}, "data_format": {"s": "TkhXQw=="}, "dilations": {"list": {"i": ["1", "1", "1", "1"]}}, "use_cudnn_on_gpu": {"b": true}, "T": {"type": "DT_FLOAT"}, "strides": {"list": {"i": ["1", "1", "1", "1"]}}}}, {"name": "StatefulPartitionedCall/functional_14_1/conv_pw_12_bn_1/batchnorm/add_1", "op": "AddV2", "input": ["StatefulPartitionedCall/functional_14_1/conv_pw_12_bn_1/batchnorm/mul_1", "StatefulPartitionedCall/functional_14_1/conv_pw_12_bn_1/batchnorm/sub"], "attr": {"T": {"type": "DT_FLOAT"}}}, {"name": "StatefulPartitionedCall/functional_14_1/conv_pw_12_relu_1/Relu6", "op": "Relu6", "input": ["StatefulPartitionedCall/functional_14_1/conv_pw_12_bn_1/batchnorm/add_1"], "attr": {"T": {"type": "DT_FLOAT"}}}, {"name": "StatefulPartitionedCall/functional_14_1/conv_dw_13_1/depthwise", "op": "DepthwiseConv2dNative", "input": ["StatefulPartitionedCall/functional_14_1/conv_pw_12_relu_1/Relu6", "StatefulPartitionedCall/functional_14_1/conv_dw_13_1/depthwise/ReadVariableOp"], "attr": {"padding": {"s": "U0FNRQ=="}, "explicit_paddings": {"list": {}}, "data_format": {"s": "TkhXQw=="}, "dilations": {"list": {"i": ["1", "1", "1", "1"]}}, "T": {"type": "DT_FLOAT"}, "strides": {"list": {"i": ["1", "1", "1", "1"]}}}}, {"name": "StatefulPartitionedCall/functional_14_1/conv_dw_13_bn_1/batchnorm/mul_1", "op": "Mul", "input": ["StatefulPartitionedCall/functional_14_1/conv_dw_13_1/depthwise", "StatefulPartitionedCall/functional_14_1/conv_dw_13_bn_1/batchnorm/mul"], "attr": {"T": {"type": "DT_FLOAT"}}}, {"name": "StatefulPartitionedCall/functional_14_1/conv_dw_13_bn_1/batchnorm/add_1", "op": "AddV2", "input": ["StatefulPartitionedCall/functional_14_1/conv_dw_13_bn_1/batchnorm/mul_1", "StatefulPartitionedCall/functional_14_1/conv_dw_13_bn_1/batchnorm/sub"], "attr": {"T": {"type": "DT_FLOAT"}}}, {"name": "StatefulPartitionedCall/functional_14_1/conv_dw_13_relu_1/Relu6", "op": "Relu6", "input": ["StatefulPartitionedCall/functional_14_1/conv_dw_13_bn_1/batchnorm/add_1"], "attr": {"T": {"type": "DT_FLOAT"}}}, {"name": "StatefulPartitionedCall/functional_14_1/conv_pw_13_bn_1/batchnorm/mul_1", "op": "Conv2D", "input": ["StatefulPartitionedCall/functional_14_1/conv_dw_13_relu_1/Relu6", "StatefulPartitionedCall/functional_14_1/conv_pw_13_1/convolution/merged_input"], "device": "/device:CPU:0", "attr": {"padding": {"s": "U0FNRQ=="}, "explicit_paddings": {"list": {}}, "data_format": {"s": "TkhXQw=="}, "dilations": {"list": {"i": ["1", "1", "1", "1"]}}, "use_cudnn_on_gpu": {"b": true}, "T": {"type": "DT_FLOAT"}, "strides": {"list": {"i": ["1", "1", "1", "1"]}}}}, {"name": "StatefulPartitionedCall/functional_14_1/conv_pw_13_bn_1/batchnorm/add_1", "op": "AddV2", "input": ["StatefulPartitionedCall/functional_14_1/conv_pw_13_bn_1/batchnorm/mul_1", "StatefulPartitionedCall/functional_14_1/conv_pw_13_bn_1/batchnorm/sub"], "attr": {"T": {"type": "DT_FLOAT"}}}, {"name": "StatefulPartitionedCall/functional_14_1/conv_pw_13_relu_1/Relu6", "op": "Relu6", "input": ["StatefulPartitionedCall/functional_14_1/conv_pw_13_bn_1/batchnorm/add_1"], "attr": {"T": {"type": "DT_FLOAT"}}}, {"name": "StatefulPartitionedCall/functional_14_1/flatten_10_1/Shape", "op": "Shape", "input": ["StatefulPartitionedCall/functional_14_1/conv_pw_13_relu_1/Relu6"], "attr": {"out_type": {"type": "DT_INT32"}, "T": {"type": "DT_FLOAT"}}, "experimentalType": {"typeId": "TFT_PRODUCT", "args": [{"typeId": "TFT_SHAPE_TENSOR", "args": [{"typeId": "TFT_INT32"}]}]}}, {"name": "StatefulPartitionedCall/functional_14_1/flatten_10_1/strided_slice", "op": "StridedSlice", "input": ["StatefulPartitionedCall/functional_14_1/flatten_10_1/Shape", "StatefulPartitionedCall/functional_14_1/flatten_10_1/strided_slice/stack", "StatefulPartitionedCall/functional_14_1/flatten_10_1/strided_slice/stack_1", "StatefulPartitionedCall/functional_14_1/flatten_10_1/strided_slice/stack_2"], "attr": {"ellipsis_mask": {"i": "0"}, "shrink_axis_mask": {"i": "1"}, "end_mask": {"i": "0"}, "new_axis_mask": {"i": "0"}, "Index": {"type": "DT_INT32"}, "begin_mask": {"i": "0"}, "T": {"type": "DT_INT32"}}}, {"name": "StatefulPartitionedCall/functional_14_1/flatten_10_1/Reshape/shape", "op": "Pack", "input": ["StatefulPartitionedCall/functional_14_1/flatten_10_1/strided_slice", "StatefulPartitionedCall/functional_14_1/flatten_10_1/Reshape/shape/1"], "attr": {"axis": {"i": "0"}, "N": {"i": "2"}, "T": {"type": "DT_INT32"}}}, {"name": "StatefulPartitionedCall/functional_14_1/flatten_10_1/Reshape", "op": "Reshape", "input": ["StatefulPartitionedCall/functional_14_1/conv_pw_13_relu_1/Relu6", "StatefulPartitionedCall/functional_14_1/flatten_10_1/Reshape/shape"], "attr": {"Tshape": {"type": "DT_INT32"}, "T": {"type": "DT_FLOAT"}}}, {"name": "StatefulPartitionedCall/functional_14_1/dense_26_1/Relu", "op": "_FusedMatMul", "input": ["StatefulPartitionedCall/functional_14_1/flatten_10_1/Reshape", "StatefulPartitionedCall/functional_14_1/dense_26_1/Cast/ReadVariableOp", "StatefulPartitionedCall/functional_14_1/dense_26_1/BiasAdd/ReadVariableOp"], "device": "/device:CPU:0", "attr": {"leakyrelu_alpha": {"f": 0.2}, "transpose_a": {"b": false}, "transpose_b": {"b": false}, "fused_ops": {"list": {"s": ["Qmlhc0FkZA==", "UmVsdQ=="]}}, "epsilon": {"f": 0.0}, "T": {"type": "DT_FLOAT"}, "num_args": {"i": "1"}}}, {"name": "StatefulPartitionedCall/functional_14_1/dense_27_1/Relu", "op": "_FusedMatMul", "input": ["StatefulPartitionedCall/functional_14_1/dense_26_1/Relu", "StatefulPartitionedCall/functional_14_1/dense_27_1/Cast/ReadVariableOp", "StatefulPartitionedCall/functional_14_1/dense_27_1/BiasAdd/ReadVariableOp"], "device": "/device:CPU:0", "attr": {"leakyrelu_alpha": {"f": 0.2}, "num_args": {"i": "1"}, "transpose_b": {"b": false}, "fused_ops": {"list": {"s": ["Qmlhc0FkZA==", "UmVsdQ=="]}}, "epsilon": {"f": 0.0}, "T": {"type": "DT_FLOAT"}, "transpose_a": {"b": false}}}, {"name": "StatefulPartitionedCall/functional_14_1/dense_28_1/BiasAdd", "op": "_FusedMatMul", "input": ["StatefulPartitionedCall/functional_14_1/dense_27_1/Relu", "StatefulPartitionedCall/functional_14_1/dense_28_1/Cast/ReadVariableOp", "StatefulPartitionedCall/functional_14_1/dense_28_1/BiasAdd/ReadVariableOp"], "device": "/device:CPU:0", "attr": {"leakyrelu_alpha": {"f": 0.2}, "transpose_b": {"b": false}, "transpose_a": {"b": false}, "fused_ops": {"list": {"s": ["Qmlhc0FkZA=="]}}, "epsilon": {"f": 0.0}, "T": {"type": "DT_FLOAT"}, "num_args": {"i": "1"}}}, {"name": "StatefulPartitionedCall/functional_14_1/dense_28_1/Softmax", "op": "Softmax", "input": ["StatefulPartitionedCall/functional_14_1/dense_28_1/BiasAdd"], "attr": {"T": {"type": "DT_FLOAT"}}}, {"name": "Identity", "op": "Identity", "input": ["StatefulPartitionedCall/functional_14_1/dense_28_1/Softmax"], "attr": {"T": {"type": "DT_FLOAT"}}}], "library": {}, "versions": {"producer": 2288}}, "weightsManifest": [{"paths": ["group1-shard1of3.bin", "group1-shard2of3.bin", "group1-shard3of3.bin"], "weights": [{"name": "StatefulPartitionedCall/functional_14_1/conv1_1/convolution/merged_input", "shape": [3, 3, 3, 32], "dtype": "float32", "quantization": {"dtype": "uint8", "min": -4.957398762422449, "scale": 0.0317781971950157, "original_dtype": "float32"}}, {"name": "StatefulPartitionedCall/functional_14_1/conv1_bn_1/batchnorm/sub", "shape": [32], "dtype": "float32", "quantization": {"dtype": "uint8", "min": -2.8829663220573876, "scale": 0.024640737795362286, "original_dtype": "float32"}}, {"name": "StatefulPartitionedCall/functional_14_1/conv_dw_1_1/depthwise/ReadVariableOp", "shape": [3, 3, 32, 1], "dtype": "float32", "quantization": {"dtype": "uint8", "min": -30.629018207624846, "scale": 0.21418893851485907, "original_dtype": "float32"}}, {"name": "StatefulPartitionedCall/functional_14_1/conv_dw_1_bn_1/batchnorm/mul", "shape": [32], "dtype": "float32", "quantization": {"dtype": "uint8", "min": 0.041313592344522476, "scale": 0.12003620954997399, "original_dtype": "float32"}}, {"name": "StatefulPartitionedCall/functional_14_1/conv_dw_1_bn_1/batchnorm/sub", "shape": [32], "dtype": "float32", "quantization": {"dtype": "uint8", "min": -1.2405199237898286, "scale": 0.02819363463158701, "original_dtype": "float32"}}, {"name": "StatefulPartitionedCall/functional_14_1/conv_pw_1_1/convolution/merged_input", "shape": [1, 1, 32, 64], "dtype": "float32", "quantization": {"dtype": "uint8", "min": -5.492383940079633, "scale": 0.04257661969053979, "original_dtype": "float32"}}, {"name": "StatefulPartitionedCall/functional_14_1/conv_pw_1_bn_1/batchnorm/sub", "shape": [64], "dtype": "float32", "quantization": {"dtype": "uint8", "min": -35.39996497210335, "scale": 0.2094672483556411, "original_dtype": "float32"}}, {"name": "StatefulPartitionedCall/functional_14_1/conv_pad_2_1/Const", "shape": [4, 2], "dtype": "int32"}, {"name": "StatefulPartitionedCall/functional_14_1/conv_dw_2_1/depthwise/ReadVariableOp", "shape": [3, 3, 64, 1], "dtype": "float32", "quantization": {"dtype": "uint8", "min": -6.283245971156102, "scale": 0.0494743777256386, "original_dtype": "float32"}}, {"name": "StatefulPartitionedCall/functional_14_1/conv_dw_2_bn_1/batchnorm/mul", "shape": [64], "dtype": "float32", "quantization": {"dtype": "uint8", "min": -0.6845849238189996, "scale": 0.06845849238189997, "original_dtype": "float32"}}, {"name": "StatefulPartitionedCall/functional_14_1/conv_dw_2_bn_1/batchnorm/sub", "shape": [64], "dtype": "float32", "quantization": {"dtype": "uint8", "min": -0.9030752111883724, "scale": 0.030102507039612415, "original_dtype": "float32"}}, {"name": "StatefulPartitionedCall/functional_14_1/conv_pw_2_1/convolution/merged_input", "shape": [1, 1, 64, 128], "dtype": "float32", "quantization": {"dtype": "uint8", "min": -2.3572662858402027, "scale": 0.025077300913193646, "original_dtype": "float32"}}, {"name": "StatefulPartitionedCall/functional_14_1/conv_pw_2_bn_1/batchnorm/sub", "shape": [128], "dtype": "float32", "quantization": {"dtype": "uint8", "min": -13.427364169850069, "scale": 0.09729974036123239, "original_dtype": "float32"}}, {"name": "StatefulPartitionedCall/functional_14_1/conv_dw_3_1/depthwise/ReadVariableOp", "shape": [3, 3, 128, 1], "dtype": "float32", "quantization": {"dtype": "uint8", "min": -10.775176384869745, "scale": 0.09209552465700636, "original_dtype": "float32"}}, {"name": "StatefulPartitionedCall/functional_14_1/conv_dw_3_bn_1/batchnorm/mul", "shape": [128], "dtype": "float32", "quantization": {"dtype": "uint8", "min": 0.10689373314380646, "scale": 0.1803938540173512, "original_dtype": "float32"}}, {"name": "StatefulPartitionedCall/functional_14_1/conv_dw_3_bn_1/batchnorm/sub", "shape": [128], "dtype": "float32", "quantization": {"dtype": "uint8", "min": -17.605019232806036, "scale": 0.10669708625943053, "original_dtype": "float32"}}, {"name": "StatefulPartitionedCall/functional_14_1/conv_pw_3_1/convolution/merged_input", "shape": [1, 1, 128, 128], "dtype": "float32", "quantization": {"dtype": "uint8", "min": -1.4741961507236256, "scale": 0.015851571513157265, "original_dtype": "float32"}}, {"name": "StatefulPartitionedCall/functional_14_1/conv_pw_3_bn_1/batchnorm/sub", "shape": [128], "dtype": "float32", "quantization": {"dtype": "uint8", "min": -8.630666261560776, "scale": 0.10035658443675322, "original_dtype": "float32"}}, {"name": "StatefulPartitionedCall/functional_14_1/conv_pad_4_1/Const", "shape": [4, 2], "dtype": "int32"}, {"name": "StatefulPartitionedCall/functional_14_1/conv_dw_4_1/depthwise/ReadVariableOp", "shape": [3, 3, 128, 1], "dtype": "float32", "quantization": {"dtype": "uint8", "min": -2.5218300819396973, "scale": 0.021191849428064683, "original_dtype": "float32"}}, {"name": "StatefulPartitionedCall/functional_14_1/conv_dw_4_bn_1/batchnorm/mul", "shape": [128], "dtype": "float32", "quantization": {"dtype": "uint8", "min": 0.07462119311094284, "scale": 0.08592319117457259, "original_dtype": "float32"}}, {"name": "StatefulPartitionedCall/functional_14_1/conv_dw_4_bn_1/batchnorm/sub", "shape": [128], "dtype": "float32", "quantization": {"dtype": "uint8", "min": -7.667938120224897, "scale": 0.07667938120224897, "original_dtype": "float32"}}, {"name": "StatefulPartitionedCall/functional_14_1/conv_pw_4_1/convolution/merged_input", "shape": [1, 1, 128, 256], "dtype": "float32", "quantization": {"dtype": "uint8", "min": -1.6445564690758199, "scale": 0.016781188459957345, "original_dtype": "float32"}}, {"name": "StatefulPartitionedCall/functional_14_1/conv_pw_4_bn_1/batchnorm/sub", "shape": [256], "dtype": "float32", "quantization": {"dtype": "uint8", "min": -6.448661215165082, "scale": 0.05607531491447897, "original_dtype": "float32"}}, {"name": "StatefulPartitionedCall/functional_14_1/conv_dw_5_1/depthwise/ReadVariableOp", "shape": [3, 3, 256, 1], "dtype": "float32", "quantization": {"dtype": "uint8", "min": -6.1691584175708245, "scale": 0.054594322279387826, "original_dtype": "float32"}}, {"name": "StatefulPartitionedCall/functional_14_1/conv_dw_5_bn_1/batchnorm/mul", "shape": [256], "dtype": "float32", "quantization": {"dtype": "uint8", "min": 0.12795421481132507, "scale": 0.020721683432074155, "original_dtype": "float32"}}, {"name": "StatefulPartitionedCall/functional_14_1/conv_dw_5_bn_1/batchnorm/sub", "shape": [256], "dtype": "float32", "quantization": {"dtype": "uint8", "min": -5.103313969630821, "scale": 0.04814447141161152, "original_dtype": "float32"}}, {"name": "StatefulPartitionedCall/functional_14_1/conv_pw_5_1/convolution/merged_input", "shape": [1, 1, 256, 256], "dtype": "float32", "quantization": {"dtype": "uint8", "min": -1.2849175930023193, "scale": 0.009517908096313477, "original_dtype": "float32"}}, {"name": "StatefulPartitionedCall/functional_14_1/conv_pw_5_bn_1/batchnorm/sub", "shape": [256], "dtype": "float32", "quantization": {"dtype": "uint8", "min": -6.614298730738023, "scale": 0.046579568526324104, "original_dtype": "float32"}}, {"name": "StatefulPartitionedCall/functional_14_1/conv_pad_6_1/Const", "shape": [4, 2], "dtype": "int32"}, {"name": "StatefulPartitionedCall/functional_14_1/conv_dw_6_1/depthwise/ReadVariableOp", "shape": [3, 3, 256, 1], "dtype": "float32", "quantization": {"dtype": "uint8", "min": -2.3099231196384804, "scale": 0.018046274372175628, "original_dtype": "float32"}}, {"name": "StatefulPartitionedCall/functional_14_1/conv_dw_6_bn_1/batchnorm/mul", "shape": [256], "dtype": "float32", "quantization": {"dtype": "uint8", "min": 0.11838623136281967, "scale": 0.004626056405843473, "original_dtype": "float32"}}, {"name": "StatefulPartitionedCall/functional_14_1/conv_dw_6_bn_1/batchnorm/sub", "shape": [256], "dtype": "float32", "quantization": {"dtype": "uint8", "min": -2.838861919851864, "scale": 0.04506130031510895, "original_dtype": "float32"}}, {"name": "StatefulPartitionedCall/functional_14_1/conv_pw_6_1/convolution/merged_input", "shape": [1, 1, 256, 512], "dtype": "float32", "quantization": {"dtype": "uint8", "min": -1.2797665465111825, "scale": 0.009998176144618613, "original_dtype": "float32"}}, {"name": "StatefulPartitionedCall/functional_14_1/conv_pw_6_bn_1/batchnorm/sub", "shape": [512], "dtype": "float32", "quantization": {"dtype": "uint8", "min": -6.123858530381146, "scale": 0.0486020518284218, "original_dtype": "float32"}}, {"name": "StatefulPartitionedCall/functional_14_1/conv_dw_7_1/depthwise/ReadVariableOp", "shape": [3, 3, 512, 1], "dtype": "float32", "quantization": {"dtype": "uint8", "min": -4.5318671207801975, "scale": 0.03906782000672584, "original_dtype": "float32"}}, {"name": "StatefulPartitionedCall/functional_14_1/conv_dw_7_bn_1/batchnorm/mul", "shape": [512], "dtype": "float32", "quantization": {"dtype": "uint8", "min": 0.142403244972229, "scale": 0.017192329612432743, "original_dtype": "float32"}}, {"name": "StatefulPartitionedCall/functional_14_1/conv_dw_7_bn_1/batchnorm/sub", "shape": [512], "dtype": "float32", "quantization": {"dtype": "uint8", "min": -9.095079758588005, "scale": 0.08661980722464767, "original_dtype": "float32"}}, {"name": "StatefulPartitionedCall/functional_14_1/conv_pw_7_1/convolution/merged_input", "shape": [1, 1, 512, 512], "dtype": "float32", "quantization": {"dtype": "uint8", "min": -0.7440764329012702, "scale": 0.005905368515089446, "original_dtype": "float32"}}, {"name": "StatefulPartitionedCall/functional_14_1/conv_pw_7_bn_1/batchnorm/sub", "shape": [512], "dtype": "float32", "quantization": {"dtype": "uint8", "min": -3.560608340244667, "scale": 0.03266613156187768, "original_dtype": "float32"}}, {"name": "StatefulPartitionedCall/functional_14_1/conv_dw_8_1/depthwise/ReadVariableOp", "shape": [3, 3, 512, 1], "dtype": "float32", "quantization": {"dtype": "uint8", "min": -3.492040406956392, "scale": 0.03754882158017626, "original_dtype": "float32"}}, {"name": "StatefulPartitionedCall/functional_14_1/conv_dw_8_bn_1/batchnorm/mul", "shape": [512], "dtype": "float32", "quantization": {"dtype": "uint8", "min": 0.1168522834777832, "scale": 0.006881945273455451, "original_dtype": "float32"}}, {"name": "StatefulPartitionedCall/functional_14_1/conv_dw_8_bn_1/batchnorm/sub", "shape": [512], "dtype": "float32", "quantization": {"dtype": "uint8", "min": -8.984708217546052, "scale": 0.0675541971244064, "original_dtype": "float32"}}, {"name": "StatefulPartitionedCall/functional_14_1/conv_pw_8_1/convolution/merged_input", "shape": [1, 1, 512, 512], "dtype": "float32", "quantization": {"dtype": "uint8", "min": -0.7662258688141318, "scale": 0.005761096758000991, "original_dtype": "float32"}}, {"name": "StatefulPartitionedCall/functional_14_1/conv_pw_8_bn_1/batchnorm/sub", "shape": [512], "dtype": "float32", "quantization": {"dtype": "uint8", "min": -5.171992088766658, "scale": 0.041047556260052846, "original_dtype": "float32"}}, {"name": "StatefulPartitionedCall/functional_14_1/conv_dw_9_1/depthwise/ReadVariableOp", "shape": [3, 3, 512, 1], "dtype": "float32", "quantization": {"dtype": "uint8", "min": -3.9665178598142137, "scale": 0.03510192796295764, "original_dtype": "float32"}}, {"name": "StatefulPartitionedCall/functional_14_1/conv_dw_9_bn_1/batchnorm/mul", "shape": [512], "dtype": "float32", "quantization": {"dtype": "uint8", "min": 0.1902216523885727, "scale": 0.11035030641976525, "original_dtype": "float32"}}, {"name": "StatefulPartitionedCall/functional_14_1/conv_dw_9_bn_1/batchnorm/sub", "shape": [512], "dtype": "float32", "quantization": {"dtype": "uint8", "min": -7.20690045076258, "scale": 0.05907295451444738, "original_dtype": "float32"}}, {"name": "StatefulPartitionedCall/functional_14_1/conv_pw_9_1/convolution/merged_input", "shape": [1, 1, 512, 512], "dtype": "float32", "quantization": {"dtype": "uint8", "min": -1.179255147073783, "scale": 0.008304613711787204, "original_dtype": "float32"}}, {"name": "StatefulPartitionedCall/functional_14_1/conv_pw_9_bn_1/batchnorm/sub", "shape": [512], "dtype": "float32", "quantization": {"dtype": "uint8", "min": -5.799177796232935, "scale": 0.04360284057317996, "original_dtype": "float32"}}, {"name": "StatefulPartitionedCall/functional_14_1/conv_dw_10_1/depthwise/ReadVariableOp", "shape": [3, 3, 512, 1], "dtype": "float32", "quantization": {"dtype": "uint8", "min": -5.119025421142578, "scale": 0.04128246307373047, "original_dtype": "float32"}}, {"name": "StatefulPartitionedCall/functional_14_1/conv_dw_10_bn_1/batchnorm/mul", "shape": [512], "dtype": "float32", "quantization": {"dtype": "uint8", "min": 0.14627400040626526, "scale": 0.09384325286921333, "original_dtype": "float32"}}, {"name": "StatefulPartitionedCall/functional_14_1/conv_dw_10_bn_1/batchnorm/sub", "shape": [512], "dtype": "float32", "quantization": {"dtype": "uint8", "min": -8.635457102457682, "scale": 0.06349600810630648, "original_dtype": "float32"}}, {"name": "StatefulPartitionedCall/functional_14_1/conv_pw_10_1/convolution/merged_input", "shape": [1, 1, 512, 512], "dtype": "float32", "quantization": {"dtype": "uint8", "min": -1.0967560487634995, "scale": 0.015232722899493048, "original_dtype": "float32"}}, {"name": "StatefulPartitionedCall/functional_14_1/conv_pw_10_bn_1/batchnorm/sub", "shape": [512], "dtype": "float32", "quantization": {"dtype": "uint8", "min": -7.103848408717735, "scale": 0.05301379409490847, "original_dtype": "float32"}}, {"name": "StatefulPartitionedCall/functional_14_1/conv_dw_11_1/depthwise/ReadVariableOp", "shape": [3, 3, 512, 1], "dtype": "float32", "quantization": {"dtype": "uint8", "min": -4.118517724205466, "scale": 0.037103763281130325, "original_dtype": "float32"}}, {"name": "StatefulPartitionedCall/functional_14_1/conv_dw_11_bn_1/batchnorm/mul", "shape": [512], "dtype": "float32", "quantization": {"dtype": "uint8", "min": 0.10657817870378494, "scale": 0.005300918951922772, "original_dtype": "float32"}}, {"name": "StatefulPartitionedCall/functional_14_1/conv_dw_11_bn_1/batchnorm/sub", "shape": [512], "dtype": "float32", "quantization": {"dtype": "uint8", "min": -8.095458748761345, "scale": 0.05661159964168773, "original_dtype": "float32"}}, {"name": "StatefulPartitionedCall/functional_14_1/conv_pw_11_1/convolution/merged_input", "shape": [1, 1, 512, 512], "dtype": "float32", "quantization": {"dtype": "uint8", "min": -0.9267722859102137, "scale": 0.007414178287281709, "original_dtype": "float32"}}, {"name": "StatefulPartitionedCall/functional_14_1/conv_pw_11_bn_1/batchnorm/sub", "shape": [512], "dtype": "float32", "quantization": {"dtype": "uint8", "min": -8.041447658164829, "scale": 0.06282380982941273, "original_dtype": "float32"}}, {"name": "StatefulPartitionedCall/functional_14_1/conv_pad_12_1/Const", "shape": [4, 2], "dtype": "int32"}, {"name": "StatefulPartitionedCall/functional_14_1/conv_dw_12_1/depthwise/ReadVariableOp", "shape": [3, 3, 512, 1], "dtype": "float32", "quantization": {"dtype": "uint8", "min": -2.266327362434537, "scale": 0.01618805258881812, "original_dtype": "float32"}}, {"name": "StatefulPartitionedCall/functional_14_1/conv_dw_12_bn_1/batchnorm/mul", "shape": [512], "dtype": "float32", "quantization": {"dtype": "uint8", "min": 0.08831815421581268, "scale": 0.006293399953374676, "original_dtype": "float32"}}, {"name": "StatefulPartitionedCall/functional_14_1/conv_dw_12_bn_1/batchnorm/sub", "shape": [512], "dtype": "float32", "quantization": {"dtype": "uint8", "min": -7.363706145567052, "scale": 0.057082993376488776, "original_dtype": "float32"}}, {"name": "StatefulPartitionedCall/functional_14_1/conv_pw_12_1/convolution/merged_input", "shape": [1, 1, 512, 1024], "dtype": "float32", "quantization": {"dtype": "uint8", "min": -1.9259313938664455, "scale": 0.013562897139904545, "original_dtype": "float32"}}, {"name": "StatefulPartitionedCall/functional_14_1/conv_pw_12_bn_1/batchnorm/sub", "shape": [1024], "dtype": "float32", "quantization": {"dtype": "uint8", "min": -12.672834976046694, "scale": 0.085052583731857, "original_dtype": "float32"}}, {"name": "StatefulPartitionedCall/functional_14_1/conv_dw_13_1/depthwise/ReadVariableOp", "shape": [3, 3, 1024, 1], "dtype": "float32", "quantization": {"dtype": "uint8", "min": -2.4448898895114075, "scale": 0.02020570156620998, "original_dtype": "float32"}}, {"name": "StatefulPartitionedCall/functional_14_1/conv_dw_13_bn_1/batchnorm/mul", "shape": [1024], "dtype": "float32", "quantization": {"dtype": "uint8", "min": 0.3851659595966339, "scale": 0.19299846057798348, "original_dtype": "float32"}}, {"name": "StatefulPartitionedCall/functional_14_1/conv_dw_13_bn_1/batchnorm/sub", "shape": [1024], "dtype": "float32", "quantization": {"dtype": "uint8", "min": -7.929063118205351, "scale": 0.06146560556748334, "original_dtype": "float32"}}, {"name": "StatefulPartitionedCall/functional_14_1/conv_pw_13_1/convolution/merged_input", "shape": [1, 1, 1024, 1024], "dtype": "float32", "quantization": {"dtype": "uint8", "min": -4.742487140730315, "scale": 0.03387490814807368, "original_dtype": "float32"}}, {"name": "StatefulPartitionedCall/functional_14_1/conv_pw_13_bn_1/batchnorm/sub", "shape": [1024], "dtype": "float32", "quantization": {"dtype": "uint8", "min": -33.74671419929056, "scale": 0.2499756607354856, "original_dtype": "float32"}}, {"name": "StatefulPartitionedCall/functional_14_1/flatten_10_1/strided_slice/stack", "shape": [1], "dtype": "int32"}, {"name": "StatefulPartitionedCall/functional_14_1/flatten_10_1/strided_slice/stack_1", "shape": [1], "dtype": "int32"}, {"name": "StatefulPartitionedCall/functional_14_1/flatten_10_1/strided_slice/stack_2", "shape": [1], "dtype": "int32"}, {"name": "StatefulPartitionedCall/functional_14_1/flatten_10_1/Reshape/shape/1", "shape": [], "dtype": "int32"}, {"name": "StatefulPartitionedCall/functional_14_1/dense_26_1/Cast/ReadVariableOp", "shape": [50176, 128], "dtype": "float32", "quantization": {"dtype": "uint8", "min": -0.034461724517099994, "scale": 0.00025527203346, "original_dtype": "float32"}}, {"name": "StatefulPartitionedCall/functional_14_1/dense_26_1/BiasAdd/ReadVariableOp", "shape": [128], "dtype": "float32", "quantization": {"dtype": "uint8", "min": -0.004250990500783219, "scale": 4.723322778648021e-05, "original_dtype": "float32"}}, {"name": "StatefulPartitionedCall/functional_14_1/dense_27_1/Cast/ReadVariableOp", "shape": [128, 64], "dtype": "float32", "quantization": {"dtype": "uint8", "min": -0.06103608856598536, "scale": 0.0010005916158358256, "original_dtype": "float32"}}, {"name": "StatefulPartitionedCall/functional_14_1/dense_27_1/BiasAdd/ReadVariableOp", "shape": [64], "dtype": "float32", "quantization": {"dtype": "uint8", "min": -0.09098461796255672, "scale": 0.0011095685117384966, "original_dtype": "float32"}}, {"name": "StatefulPartitionedCall/functional_14_1/dense_28_1/Cast/ReadVariableOp", "shape": [64, 7], "dtype": "float32", "quantization": {"dtype": "uint8", "min": -0.19709394714411566, "scale": 0.0016845636508044074, "original_dtype": "float32"}}, {"name": "StatefulPartitionedCall/functional_14_1/dense_28_1/BiasAdd/ReadVariableOp", "shape": [7], "dtype": "float32", "quantization": {"dtype": "uint8", "min": -0.23227798062212326, "scale": 0.0012904332256784626, "original_dtype": "float32"}}]}]}